rnn_stock_model.pth (torch, 129128 bytes, 9 tensors)

weight_ih_l0 f4 [200, 1]
00000000: bbd3 4dbc bbe8 1d3e afa7 f33d d70b a7bd
00000010: 9fcc 713d c7c8 f83d 831d c73b aabd 72bc
00000020: 9001 96bd 1093 4a3d 4283 a6bc a013 91bd
00000030: e208 283e 0f6d 0ebd f23d a63d dd6e 093d
00000040: 7e4d 173e f244 ccbc 90fa 64bd 3c93 d83d
00000050: 7aad fa3d 6f6e c53d 5792 403c 47b1 093d
00000060: 2a0b 933c 28a9 3b3d da6b 7ebd 03da 5bbc
00000070: d392 ed3c dfac d03d 60e4 c33d ce71 553c
00000080: 9f41 4a3e 8139 1cbd c040 f63c d131 98bd
00000090: 005e 69bd 44b1 483e 9c3c 66bd fbd6 2f3e
000000a0: 7ecc 4bbc d5b6 f23d 9391 0b3d 070a e53d
000000b0: ec82 443d fff1 9a3d 1463 20be 1c18 f7bc
000000c0: b76c 263d 0835 acbd c2e6 653d af1e 453c
000000d0: 74a5 a03d b5f0 0ebe d88d 053d 7100 103d
000000e0: 6b55 c5bd 2970 83bb 64f6 fc3d b2ba 423e
000000f0: 41b6 ce3d 4186 8fbd abc4 c43d 7aeb 6bbd
00000100: 3c7e d5bc f6b7 2a3e 38a3 d53d aab1 823d
00000110: 2ca7 dabd 48b4 4d3e 370c f83d bc49 e33d
00000120: adb3 83bd fea0 48bd b110 9e3d 374b 4abd
00000130: 9991 29bd 81b8 74bd 69a9 b9bd d879 9a3d
00000140: 5de3 fe3d 23b8 193e 3b04 83bd 01d1 72bd
00000150: 9cb5 1b3d e369 80bc bcaa 413d d145 e23d
00000160: 1019 4bbb f1ee d13d bfea 09be 1ae3 e73d
00000170: 87f1 a0bd e3e4 1a3d b280 053e c997 e53b
00000180: 2471 92bd 8827 2b3e 3e6e 37bd 1a33 babc
00000190: b7cc 7c3d feb3 743d ebe5 fabd f849 bb3d
000001a0: fc20 b8bd 14f1 63bd 9a88 61bc 05cc 33be
000001b0: e111 d43d bd08 90bc 4580 82bd 6279 a6bd
000001c0: 3343 9f3d 6299 c1bd 7754 883c b1a4 723d
000001d0: 4dd7 403d f935 1a3e 9c03 90bc 68a0 4abe
000001e0: 14f4 883d 349a 2fbe 91c2 febd 7d62 ed3d
000001f0: 8f72 b4bd ca8d edbd 4d67 b7bc 34ce 323e
00000200: 75d1 d1bc f13a 16be 94c4 133e 4401 653d
00000210: 748b 27be d0f5 29bd 3e3d debc 807b 3a3e
00000220: ea26 f0bd fcbb 6c3d f659 123e 7109 d3bc
00000230: 8d52 2b3e d84d a93b ad56 63bd b90c a23c
00000240: 4faa 503c bb75 28be d544 dfbd 440e b53d
00000250: eb45 05bc dc7b 0bbd 53cf 433e 1fe7 353d
00000260: 9455 47bd 987a 453c b6b4 313d d36b 9bbd
00000270: d9a5 acbd 5635 113e 5446 033e 66fa f6bb
00000280: e437 3d3e 213a 81bd f710 2e3e 5dc2 253e
00000290: ea8a 833d dbad 233e 967b 1f3e 0cfc 27bd
000002a0: 9c28 c5bd cd46 243e cb4b 5dbd ad6a c9bd
000002b0: b27e c3bd 589e 2dbe 4332 1d3e ca23 8fbd
000002c0: c76f b53d a5e2 253e dd5e a6bd 6629 013c
000002d0: bc55 923d 0710 e03d 9f0b ac3d 7ccc ea3d
000002e0: a532 ff3d eb7a 27bc 80ae 9bbc b30b f13d
000002f0: 1174 f9bc 66b1 153e c94f 11be e9af 6dbc
00000300: 57b9 37bd f42d 223e a493 c03d 116e 2e3e
00000310: 35ca a1bd e7a0 003d 6f6c f13d 1df1 1ebd
-0.0125626875 0.15420811 0.118972175 -0.08156555 0.059033033 0.1214767 0.006076516 -0.014815727
-0.07324517 0.049456656 -0.02032626 -0.07083821 0.16409639 -0.034771975 0.08117284 0.033552993
0.14775655 -0.02493522 -0.055903018 0.10574958 0.12240119 0.09640204 0.01175364 0.03361633
0.01794966 0.045815617 -0.062114574 -0.013418677 0.029000675 0.101892225 0.095650434 0.013027621
0.19751595 -0.038140777 0.030060172 -0.07431377 -0.05697441 0.19598871 -0.056210145 0.17171852
-0.012438891 0.11851279 0.034074377 0.11183553 0.04797642 0.07565688 -0.15662795 -0.030162863
0.040631022 -0.084085524 0.05612827 0.012031241 0.07844058 -0.1395901 0.032605976 0.03515667
-0.09635433 -0.0040111733 0.12351683 0.19016531 0.10093356 -0.07008029 0.09607824 -0.057597615
-0.02606117 0.16671738 0.10431522 0.06381543 -0.10676417 0.20088303 0.12111705 0.11098048
-0.06430755 -0.04898166 0.077180274 -0.049388137 -0.04139862 -0.05974627 -0.090655155 0.07542771
0.1244571 0.15011649 -0.06397291 -0.059281353 0.038014993 -0.01567549 0.047281966 0.11048473
-0.003099028 0.102506526 -0.13468455 0.11322613 -0.07858568 0.03781594 0.13037375 0.0070066196
-0.07150486 0.16714299 -0.04478287 -0.022729445 0.06171867 0.059741966 -0.122508846 0.09144968
-0.08990666 -0.055649832 -0.0137654785 -0.17558296 0.10354973 -0.017582292 -0.06372122 -0.08128621
0.07776489 -0.094530836 0.016641838 0.059239093 0.047080327 0.15059651 -0.017579846 -0.19787753
0.06687179 -0.17148668 -0.12439454 0.11591051 -0.08810913 -0.1159931 -0.022388125 0.17461473
-0.025612572 -0.14670922 0.14430457 0.05590941 -0.16361791 -0.04149419 -0.027128812 0.18211174
-0.11726172 0.057796463 0.1429213 -0.025761338 0.1673071 0.0051667504 -0.055502582 0.019781457
0.012735917 -0.1645116 -0.109018005 0.088406116 -0.0081343455 -0.03405367 0.19122057 0.044409867
-0.048665598 0.012053154 0.04338523 -0.07588925 -0.084300704 0.14180502 0.12819797 -0.007537174
0.18478352 -0.06309915 0.16998659 0.16187425 0.0642298 0.1598429 0.15574488 -0.041011855
-0.09626886 0.16042633 -0.05402736 -0.098348 -0.095456496 -0.16954935 0.15351205 -0.06989248
0.088592105 0.1619974 -0.081235625 0.007883405 0.07145259 0.10940557 0.08400654 0.114647835
0.124608316 -0.010222177 -0.019004107 0.117698096 -0.030450853 0.14618453 -0.14190592 -0.014507272
-0.04485449 0.15837842 0.0940316 0.17034175 -0.07899896 0.03140345 0.1178826 -0.038804162

weight_hh_l0 f4 [200, 50]
00000000: 4cee 92bd 3cc1 313d ff67 bbbd d9d6 123e
00000010: 43e4 81bd 55fe e4bc 7401 b9bd b134 b5bd
00000020: 0ed7 263e 67ec a0bd 0916 84ba 77bf 233d
00000030: fe61 783d d944 89bd 9676 afbd 0285 c53d
00000040: be3f ddbd bb16 e13c cbf6 b43d ece6 c2bc
00000050: 2509 da3d 0577 b23b 1018 ca3d 2d84 153b
00000060: f4c9 eabc 226b 1abe 9418 f13d ba83 19bd
00000070: 8791 b9bd 8cef bebd b3ba 083e e9c1 19bd
00000080: 6c87 a8bc 9323 11bb 8760 06bd 4fbc 61bd
00000090: c8c0 ab3d 9567 c93c 04a1 d8bd cc73 1fbd
000000a0: 15aa 51bd cb87 023e f247 1b3e f6c3 473d
000000b0: eb25 ebbb 073b 3fbe 15ee d5bd 73a8 743d
000000c0: 105c bc3d 843d adb7 fadd 5b3d 7e17 1fbd
000000d0: 28eb db3c 54b0 2c3d 79dc 953d b1eb b03c
000000e0: 7f61 fd3d f1a6 ef3c 9eaa c03d 9e14 f1bd
000000f0: 931f e13d c8a6 8ebd 082e 1d3e 4561 90bd
00000100: ae8c aebd ef89 3b3c 8383 e4bd b1cc a8bd
00000110: 9439 873d 9554 b63d a8ac 16bd d158 033d
00000120: 9ada 08bd afbd 66bb 5cee bfbd 8cc9 cc3d
00000130: 3875 fc3b fb3f c5bd 7796 ea3d 792f fb3b
00000140: b680 b13d 4709 1abd e4ed 14be 6b5c 4bbc
00000150: 8a9d e93d f2eb d23d a9e9 fdbd 3fbf e5bd
00000160: 4c17 66bd c711 ac3d 205a 983d 5056 873d
00000170: d5aa 59bd e7b1 bb3d 1207 203d a7f3 80bd
00000180: 1875 bebd 6083 a1bd be77 cd3d b777 d33d
00000190: 956b 23bd b5f2 56bd 692e ea3c 3f74 8bb9
000001a0: 9191 0e3d 22f3 19bd a06e 953d c4ed 5b3c
000001b0: 123b 9ebd 0d6a e8bc f0d7 58bd 61b0 debd
000001c0: 4772 503c ffbe 863d 6c4b 4bbd 78b1 afbd
000001d0: 9837 6e39 d2b0 81bd b939 ce3d 9031 50bd
000001e0: 7093 04bb 15f0 8d3d 2d03 e5bd 944c ea3c
000001f0: 8d2a 13be 4f0a e93d 9792 c53d c257 363e
00000200: ea60 cdbd b89c 883d fb06 e33b c793 debd
00000210: c319 a8ba 980c b43b e733 20be abdd 173d
00000220: b38f 7dbd c508 373b 61e1 9e3d 83e2 ff3d
00000230: 43ea 383e d47b da3c 795d e3bc 9123 11be
00000240: 5735 edbc 90c4 2cbe e7c6 e1bd 370f c4bd
00000250: 6ce0 4f3c cf4d 9abc de2a 1ebe e125 d7bb
00000260: 61e7 043e e76e 233d 84d3 8fbd e9de eebc
00000270: e30e 82bd 6fc5 62bd 6ebf 2bbe 7c38 d6bd
00000280: ecba d5bc 214f 373c 0934 17bd 430d 273a
00000290: cb51 643c f352 f9bc e4b2 133b 3a4b f7bc
000002a0: cf81 103e 3b63 8d3d 5f91 d3bc bcca 4a3d
000002b0: eeb5 e6bd bd34 a93d 7b83 b93d 9dd0 983d
000002c0: 4b9c d4bd ddfb 993d 7241 113d 673d 373e
000002d0: c2d7 dcbd 4e81 413c d8b7 c83d eb62 29bd
000002e0: 0f8b d6bc 3a7a 053d c787 0c3e f48e 0ebe
000002f0: f2e4 24bd a522 a03d c063 a8bd a6ed 45bc
00000300: dbf3 a3bd 93af 8f3c 60f4 fe3c a231 28bd
00000310: 901f d03d 5fe5 3c3d 2c04 0fbd 5cd4 d6bd
00000320: f2eb 85bd a79f ee3d 712c c5bd 7e75 563d
00000330: 4263 96bc 7af2 113d 2efc 303d 1408 75bd
00000340: 811b 213e a6bd 89bc a246 d4b9 45ff 043d
00000350: f12c 92bd a8e4 e03d 1375 f8bd 1695 0f3c
00000360: 2de4 3bbd 6a0f be3d 8c61 a63d 1e5d ab3d
00000370: 1f95 c63d e74e 0ebe 22e7 003d 7bdb 143e
00000380: 2640 d9bb b662 b03c 7e9f fabd eb6e 1abb
00000390: 0a5e 423d b9b7 12be 0e26 4c3d a75a c4bd
000003a0: 24c8 25be 1551 773d 5e5d 0cbe f56c 0b3e
000003b0: 9069 a83c 816b bebd 68c7 2d3e 842e 59bd
000003c0: bf79 673d 31e3 a1bc df0b 44bd 9c4f 7bbd
000003d0: d464 2b3d 61de 843c da77 533d cfdd cf3d
000003e0: c344 a9bc 0b9b 03be deb1 bdbc 4135 b4bd
000003f0: 5a38 53bd f02b a3bd 5495 8cbc 3580 e93d
-0.07174358 0.043397173 -0.09150695 0.1433977 -0.063423656 -0.027953306 -0.0903348 -0.08847941
0.16292974 -0.0785759 -0.0010077368 0.039977517 0.060640328 -0.06702585 -0.0856754 0.0964451
-0.108031735 0.027476659 0.088361345 -0.023791753 0.106462754 0.005446317 0.09867871 0.0022814379
-0.028660752 -0.1507993 0.11772266 -0.03747914 -0.0906096 -0.09323034 0.1335247 -0.037538443
-0.020572387 -0.0022146448 -0.0328069 -0.055111226 0.083863795 0.024585525 -0.10577586 -0.038928792
-0.051187593 0.12747113 0.15164164 0.048770867 -0.007176151 -0.18674861 -0.10445801 0.05973096
0.09197247 -2.0651853e-05 0.05367849 -0.038840763 0.02684553 0.042160347 0.073174424 0.021596761
0.123721115 0.029254409 0.09407543 -0.117715105 0.109923504 -0.06965405 0.15349591 -0.07049803
-0.08522926 0.01144646 -0.11157896 -0.08242167 0.06602779 0.089028515 -0.03678575 0.032067124
-0.0334116 -0.0035208275 -0.09371635 0.099993795 0.0077044033 -0.09631344 0.1145448 0.0076655713
0.08667128 -0.037606504 -0.14543873 -0.012412171 0.11407001 0.10298909 -0.12398083 -0.11218118
-0.05617456 0.08401828 0.07439065 0.0660826 -0.053141434 0.091647916 0.039069243 -0.06296473
-0.092996776 -0.07886386 0.10032605 0.10325568 -0.03989752 -0.052477557 0.028586583 -0.00026598756
0.03480679 -0.037585385 0.07296491 0.013423387 -0.077261105 -0.028370881 -0.05294031 -0.10873485
0.012722558 0.06579398 -0.049632475 -0.08578771 0.00022718159 -0.06332554 0.100696035 -0.050828516
-0.002022948 0.06930558 -0.11182246 0.028600968 -0.143717 0.11378919 0.096471004 0.17806914
-0.100282505 0.06670517 0.0069283224 -0.1086803 -0.001282506 0.0054946654 -0.15644799 0.037076633
-0.06190462 0.002792881 0.07757831 0.124943756 0.18058114 0.026670374 -0.027754532 -0.14173724
-0.028956098 -0.16871858 -0.11024266 -0.095732145 0.012687784 -0.01883593 -0.1544604 -0.006565795
0.12978889 0.039900687 -0.07022765 -0.029159026 -0.06350496 -0.05536407 -0.16772243 -0.10459992
-0.026090108 0.011188299 -0.03691486 0.00063725206 0.013935517 -0.030435061 0.0022537047 -0.030187238
0.14112018 0.06903692 -0.025826154 0.04950975 -0.11265169 0.08262012 0.09058281 0.07461665
-0.10381373 0.07518742 0.035462804 0.17894517 -0.1078334 0.011810614 0.098006904 -0.0413541
-0.026189355 0.032587267 0.1372367 -0.1392172 -0.0402574 0.07819108 -0.08222151 -0.012080586
-0.08005496 0.017539775 0.031122386 -0.04106296 0.1016227 0.046117183 -0.034916088 -0.10489723
-0.065391436 0.11651545 -0.09627617 0.052358143 -0.018357877 0.035631634 0.043209247 -0.059822157
0.15733148 -0.016814064 -0.00040488417 0.032470006 -0.07137478 0.10981113 -0.12131705 0.008763572
-0.045871902 0.09280284 0.08124074 0.0836737 0.09696411 -0.13897286 0.031470425 0.1453685
-0.0066299615 0.021531444 -0.12237452 -0.0023564647 0.047452964 -0.14327897 0.04984098 -0.09587603
-0.16189629 0.06038006 -0.13707492 0.13615783 0.020558149 -0.092978485 0.16970599 -0.053022876
0.05651259 -0.019761654 -0.047862884 -0.06135522 0.041844204 0.01621932 0.05162797 0.101497285
-0.020662671 -0.12852113 -0.023156103 -0.0879922 -0.051567413 -0.07967365 -0.017161049 0.11401407

bias_ih_l0 f4 [200]
00000000: e83a 21bd cf86 00be 7816 86bd c3c3 893b
00000010: c3fb a1bd 1dc0 1e3d 7359 fa3d 6b95 8fbd
00000020: 44f3 a53d 325c 0c3a 0aa2 973d 55af 62bc
00000030: 878a d23c 483b b6bd ae33 8e3c 6919 d2bd
00000040: ab90 7ebd 9c5f 273c fc1c b93d c265 e33d
00000050: 0a0a 0c3e 9594 a83d 4e30 4abd bf0d 8cbd
00000060: c61a 273e 1389 d73d 1058 c2bd 76dd e73d
00000070: 9022 00bd 4dda 163c cf13 0e3d 99ea 84bd
00000080: 1864 ad3d fa52 c0bc 65b1 ee3d 4047 43bc
00000090: f5a4 c5bc baaa cbbd 1245 b63d d87c 9d3d
000000a0: 0441 1e3e 362b 89bd 2902 01be c47c 743d
000000b0: fc9b b1bb f9db 9fbd 17fd 173d d7c0 08be
000000c0: f9b3 a7bc f5d4 2bbd 638c 203e e3d7 17be
000000d0: 69cd d03d f1e6 16bc 23ed 8eba 4160 103d
000000e0: c97e aa3d fbc8 9d3c 720d 793c feb3 f6bd
000000f0: 9fbc e83d 80e2 fbbc 0135 b3bd 7611 0d3e
00000100: 757f 05be 8a84 173e c601 893d 6466 27bd
00000110: 0580 d43d 981c fdbc 134a 2bbd 646b 4bbd
00000120: 11ed a13c e258 d7bd 31fe 1c3e d8d9 d6bd
00000130: a656 f0bd 5826 193b 0a79 c93d 3d1f 233d
00000140: 88b3 823d 90d9 593d 7133 dd3d 9d2d c73d
00000150: b084 83bd 7348 0e3e ada1 1cbd e047 dc3d
00000160: 9110 8abd ffab 8fbc bf0c 4c3d 5db6 173c
00000170: 0465 bcbc 7a4c 043e 4e54 6abc 8e22 6ebd
00000180: 0739 70bd 718c c83d 4662 dabc c219 acbd
00000190: 5e8b 20bd 851f 4bbc 82a3 9fbd 5dd9 05bc
000001a0: b197 43bd 6468 04bd 36ff 0cbd ea34 b13d
000001b0: 0402 9d3d d820 6a3d 002a 073e 7d32 9a3c
000001c0: c4bb 20be 49ad 033d ee2f cb3d 4b1d 2fbd
000001d0: 72e4 f4ba 3d95 373d fd96 923c c55f fbbd
000001e0: 5901 8bbd 65b7 983d 4bf2 b1bd 4e04 813c
000001f0: ac41 27bc 9a9a 04be 8c03 a4bd e38e 653d
00000200: 165f 9a3c 17cd 663d ac39 a0bc b2c1 d83d
00000210: b773 12be 785a f6bd 9968 0b3d 0069 e53d
00000220: 084b babd d46f 0e3e 6a43 043a aa9f f73d
00000230: da0f da3b 0138 b53d 7104 d03d 7464 acbd
00000240: cd6c 683d 0ae0 bebd 2e96 933d d1f5 a53d
00000250: e14c ba3c e1a9 e53c f31e 8fbd 1718 70bd
00000260: ef2a b43d f51c bd3d 5973 d53d a31b ff3c
00000270: 5218 133e 700c 563d 9820 adbd 9df3 3a3d
00000280: bd52 acbd f45c cdbd 7abe 583c 659d d23d
00000290: 7439 c2bd 0f15 893b e03d 163d ff57 b1bb
000002a0: 23fa b83d d315 253d b25f 143e f608 94bd
000002b0: 275e 2cbd cfd7 1f3e 40c8 79bd dcbc bd3c
000002c0: 4635 1fbd f09a abbd 3a75 d3bd 1a5f 323e
000002d0: 4a53 32bd a80b 05be 412a 9dbd 0d90 9abd
000002e0: 8b6b da3d 77e7 28bd bd66 cebb a3cc 8b3d
000002f0: ee3f 7ebd 5557 003e 4b3c 7abc f5b9 513d
00000300: 1b5f b03d 5337 8f3c 2caa cfbc a99e a43d
00000310: bc29 89bd bdb5 febd a3fd 85bd 9850 033c
-0.039362818 -0.12551425 -0.06547254 0.004204245 -0.07909348 0.038757432 0.12224092 -0.07010921
0.0810304 0.00053543143 0.074039534 -0.013835748 0.02570082 -0.08898026 0.017358627 -0.10258753
-0.062149685 0.010215666 0.090387315 0.11103393 0.13675705 0.08231465 -0.049362473 -0.06838559
0.16318807 0.10524192 -0.09489453 0.11321537 -0.03128296 0.00920732 0.03468686 -0.064900585
0.08466357 -0.023477066 0.11654929 -0.011918843 -0.02412651 -0.09944673 0.08899893 0.07689828
0.15454489 -0.06697695 -0.1259848 0.0596893 -0.005420206 -0.07805628 0.0371066 -0.13354813
-0.02047156 -0.04195114 0.15678553 -0.14828448 0.10195429 -0.009210334 -0.0010904412 0.035248045
0.083249636 0.019260874 0.0152009595 -0.120460495 0.113641016 -0.030747652 -0.08750344 0.13776192
-0.13036902 0.14796653 0.066897914 -0.04086913 0.1037598 -0.030897424 -0.04181869 -0.049662963
0.019766362 -0.10515 0.15331341 -0.10490769 -0.11735277 0.0023368802 0.098375395 0.039824713
0.06381899 0.053186 0.10800827 0.09725497 -0.064217925 0.13894825 -0.038240124 0.107558966
-0.06741441 -0.017538069 0.049816843 0.009259787 -0.022997387 0.12919798 -0.014302326 -0.058138423
-0.058648136 0.09792412 -0.026658189 -0.084033504 -0.03919541 -0.012397652 -0.077948585 -0.008169499
-0.047752086 -0.032326117 -0.034423076 0.08652671 0.076664 0.05716023 0.13199615 0.018822903
-0.15696627 0.03214768 0.09921251 -0.042752545 -0.0018683805 0.04482006 0.017894262 -0.12274126
-0.067873664 0.07456855 -0.08688792 0.015749123 -0.0102085285 -0.12949601 -0.08008489 0.05604447
0.018844169 0.056347933 -0.01955875 0.105838194 -0.14301954 -0.12028974 0.0340353 0.11201668
-0.09096342 0.13909847 0.0005045446 0.120910004 0.0066547217 0.088485725 0.10157097 -0.084175974
0.056744386 -0.09320076 0.07206379 0.081035264 0.022741737 0.028035106 -0.06988325 -0.058616724
0.087972514 0.09234039 0.104223914 0.031141108 0.14364746 0.052257955 -0.084534824 0.045642484
-0.084142186 -0.10027495 0.013229007 0.10283927 -0.094836146 0.0041834186 0.036680102 -0.0054121013
0.09032085 0.040304016 0.1448963 -0.07228272 -0.04208198 0.15609668 -0.06098199 0.023161344
-0.038869165 -0.08379161 -0.103250936 0.17419091 -0.043536462 -0.12992728 -0.07674075 -0.07547007
0.106650434 -0.041236367 -0.0062988685 0.06826141 -0.062072687 0.12533315 -0.015273164 0.051202733
0.0861189 0.017482435 -0.025349699 0.080380745 -0.06697413 -0.124370076 -0.06542518 0.0080148205

bias_hh_l0 f4 [200]
00000000: b51d b1bd a862 b23d 1868 d6bc 08d0 b83c
00000010: e326 193c e4b9 5539 808b f8bd 521c 113e
00000020: 4058 e33c 8424 003e b0ad ad3d a7ea fa3d
00000030: 56ef 3b3d 1034 2abd 3cef 923c e192 053e
00000040: 3c31 9cbd b3bf 2cbd 1b67 1b3d fcfc 813c
00000050: 24b2 d1bc 1250 1e3e 6056 b2bd df61 9dbd
00000060: 2da5 023c bb2e 123e 8892 2d3d 3eed 3f3d
00000070: 7a83 dabd 5d31 85bd cf84 e33d eb02 d6bd
00000080: e33d 49bd ae7b ee3d 6dfc a3bd d64a bc3d
00000090: e0e4 67bd 015f 18bd df65 543c 576b b7bd
000000a0: 6738 b33d dd42 50bd 60a2 fb3d a1b2 313d
000000b0: f63e d73c 708a 2d3e 96ad f0bc 7c1a 49bd
000000c0: 681b 0c3d ff33 4b3d 07ea 003e 296c 953b
000000d0: f784 f3bd 461a c9bd 31cb 8ebd 4438 4cbd
000000e0: a2bf 16bd d9b0 c2bd c85d 363c 6f0e d7bd
000000f0: 9905 063e 1588 b1bb d77a 283e 6abf c4bd
00000100: ef87 1ebc f896 0c3e 4acf 91bd ba12 6b3d
00000110: de7a b53d 9c1f 993c 4f3a c7bb 8df5 8abd
00000120: 21c4 a83d 82ab d33d 2a24 b8bd 523a 823d
00000130: df70 cabd 127d 2a3d 35d5 95bd d1b2 253e
00000140: d928 903c 9842 303d 0c8c 213d 2b60 a33c
00000150: afe7 2e3d bba3 fc3d 94a0 443c f2e5 a8bd
00000160: d9bc d0bd 0360 07be 663c d4bd 02e8 df3c
00000170: 6df8 b53d 5f2e 8d3d b9e2 25bd b9c6 1b3e
00000180: 596e bebd 829c 37bc cb16 7d3d 4296 8e3c
00000190: de5a bc3d eb5e e23d eb61 d93c 28fe d0bd
000001a0: 7549 58bd 7e53 4bbd cadc fd3d ce51 a7bd
000001b0: 1d9a f13d f00f 773d b833 023e 600c 623d
000001c0: cd9d b63d b1cd df3d 3038 0cbe b432 cb3d
000001d0: fe76 9b3d 356d ddbc 731e d03d 97d0 71bd
000001e0: 73ea d23d e879 09bc a520 293e 4095 09bc
000001f0: 2b64 213d 5f17 06be 386e e53d 1f18 b7bd
00000200: bbd9 563d d9bd 223d 3687 513d 4c9d a0bd
00000210: 97c8 eb3d ad5a b13d 0f2b edbd 3c9c e13d
00000220: 464f 19bd 37dd fcbd 2f05 d03d 7e35 dbbd
00000230: 931c 5ebd 4461 073e ce09 d53d ffbe eabb
00000240: d9d4 6d3d bc75 fa3d a081 6fbd 27ed b3bd
00000250: b8c3 a33d a515 2f3d 821f 33bc 19cc 473d
00000260: d355 1c3e 8907 4a3d 43a5 51bd 2547 19be
00000270: 91b0 b3bc 6540 0bbd 9dd5 903d bc81 993d
00000280: 5383 9e3d 9808 d0bd 5c4a c0bd 5c43 b7bc
00000290: b41a b2bd 2ab1 d9bd c9c0 d83d 6e90 20bd
000002a0: 613c d93d fc3d 97bc c67d 123e e00e 2a3e
000002b0: 94ae ebbc b5df 783d 496a 163d 4240 133e
000002c0: 6dd4 12be 5ddc 293e fe03 d2bb 8a41 173e
000002d0: 89e7 1dbd 1e69 9bbd ad0d 053e 55f7 c8bc
000002e0: 38b8 b3bd 52da a4bd e595 053e c8e6 c4bb
000002f0: f786 45bc df42 dd3c 2b64 043e 4775 8dbc
00000300: 6910 fd3d e1f8 5d3d 4292 853c 464d 3d3d
00000310: b94c cebd 1ff3 fb3d fe36 bdbd 6c87 afbd
-0.08648244 0.087102234 -0.026172683 0.022560135 0.00934765 0.00020382513 -0.121359825 0.1417096
0.027752042 0.1251393 0.08480394 0.12251788 0.045882545 -0.041553557 0.017936341 0.13044311
-0.07626578 -0.042175006 0.037940126 0.015867703 -0.02559764 0.15460232 -0.08707881 -0.07684683
0.007973951 0.14275639 0.04237607 0.04685711 -0.106696084 -0.06503556 0.111093156 -0.10449775
-0.049131285 0.11644684 -0.08007131 0.09193961 -0.056614757 -0.037199978 0.012963741 -0.0895602
0.08750992 -0.050845016 0.1228683 0.043383244 0.02627514 0.16947341 -0.029379647 -0.049097523
0.034205824 0.049610134 0.12589274 0.004560013 -0.118905954 -0.098194644 -0.069723494 -0.049858347
-0.03680385 -0.09506387 0.011130758 -0.105008 0.13088073 -0.0054178336 0.1645311 -0.09606822
-0.009675964 0.13729465 -0.071196154 0.057390906 0.08861326 0.01869183 -0.006079949 -0.06785116
0.082405336 0.10335447 -0.08991273 0.0635878 -0.0988481 0.041623183 -0.07316057 0.16181494
0.017597603 0.04303226 0.0394402 0.019943317 0.04270142 0.123359166 0.012001175 -0.082469836
-0.1019227 -0.1322022 -0.103630826 0.02733231 0.08885274 0.0689361 -0.040499423 0.15212525
-0.09298391 -0.011206748 0.061789315 0.017405633 0.09197019 0.110532604 0.026535949 -0.102047265
-0.05280443 -0.04964017 0.12395628 -0.081699 0.11796973 0.060317934 0.12715042 0.055187583
0.08916817 0.109279044 -0.13693309 0.0992178 0.07591055 -0.027029613 0.10162058 -0.059036817
0.10298624 -0.008390881 0.16516359 -0.0083974 0.03940217 -0.13094853 0.11202663 -0.089401476
0.052453738 0.039731834 0.051154338 -0.07842502 0.11512869 0.08659873 -0.115804784 0.110161275
-0.037429117 -0.12346881 0.10157239 -0.10703562 -0.05422647 0.13220698 0.10402261 -0.007163882
0.058064315 0.12229487 -0.05847323 -0.087854676 0.07996315 0.04274525 -0.010932805 0.048778627
0.15267114 0.049323592 -0.051182996 -0.14968546 -0.02193478 -0.03399696 0.070719935 0.07495448
0.07739892 -0.10157889 -0.09389183 -0.022370987 -0.086964995 -0.106294945 0.10583646 -0.03920024
0.106072195 -0.018462174 0.14305791 0.16607237 -0.028769769 0.06076022 0.036722455 0.14379981
-0.14338847 0.16587968 -0.0064091673 0.14771095 -0.038550887 -0.07588409 0.12993498 -0.024532
-0.08775371 -0.08049454 0.13045461 -0.0060089566 -0.012056104 0.027009426 0.12928836 -0.017267836
0.123566456 0.054192428 0.016305093 0.04621627 -0.100732274 0.12302231 -0.092390046 -0.085707515

weight_ih_l1 f4 [200, 50]
00000000: 75e3 66bd bc59 003e 0ff0 9f3d 9260 c8bd
00000010: 36d7 ecbd 1663 b5bd 251b a53d c850 873d
00000020: dde6 bc3d ff60 bb3d 5088 7c3b 1a3e 9dbc
00000030: c746 5dbc 077d eebd 98a8 ecbd 73b6 9a3d
00000040: 2bce 623d aade a5bc 5e56 57bd 82da 05be
00000050: edf1 a8bd f62f 7fbd ebec b03d 0cb9 303d
00000060: 224f 14bd 5530 133d 6cc5 bc3d d8d6 223d
00000070: 2ee9 01be 8010 60bd 2a5d a1bd 8606 5abd
00000080: 37e4 473d d986 743b fe58 053e 1e5a f33d
00000090: 21cd 07be e8a2 50bd c827 22bc e00a 13bd
000000a0: 8197 53bd fd21 9dbd 1c39 03be ce1b 29bc
000000b0: 45bc d43d eabe 08be 2025 14be 0bb0 7abd
000000c0: 247a 083d e8db d4bc 9ced dbbd 7568 b9bb
000000d0: 731e bc3c ab10 62bd 0c2c b53d a3ae bf3d
000000e0: 5787 1f3c 50dd 8bbc e9b4 883d 6612 febb
000000f0: 7887 d73d f21a 923d db7c cebd 0c33 c1bc
00000100: bfa1 37bd a2b0 e5bd 43f2 02bd 5416 eabd
00000110: b2d6 bf3d 4139 c43d a7d4 633d 5347 b83d
00000120: d849 1bbd c287 2abd 8e7a 8ebd 9c2b a03d
00000130: edc0 cb3d 357b 1c3e ef0c 9b3c 281f 44bd
00000140: 7fb2 4c3c 5a4b 8f3c c13a c7bd a5c2 6bbd
00000150: 35ef 13be 3651 353d dc51 00be 603f 543d
00000160: 9361 193e f0bc bb3b 5b3e 103e d1b7 943c
00000170: dd36 72bd bc6e 00bd f3fb 983d f150 67bd
00000180: ffb8 423d 3c37 e1bc 30c0 483d be95 4fbd
00000190: 6349 833d d38b 123e 317b 26bd 957b 3a3d
000001a0: fd98 88bd 9678 af3c 251a 92bd a597 f1bc
000001b0: d1d5 4a3d f38a d6bd bfa6 c13d 39bf 34be
000001c0: d636 113e 471a 233c 90df 903d 1809 223e
000001d0: 2581 a8bd 32a7 913d 6458 d4bd af0e 313c
000001e0: 91c7 df3d 9b9b de3b e02c 753d 0a63 cf3d
000001f0: 830d 34be 0a83 e03c 0d3c 51bd 4798 143e
00000200: f8fe 5b3d 991e 3b3b 35ef 713d a380 99ba
00000210: ee6f aebd e792 3b3d 4bb1 ccbd 6dc2 dd3d
00000220: 6f78 1ebe 9e14 2a3d 403b 4f3d a80e 3fbd
00000230: f9a0 a83b 424f d33b 558a c13b 84b5 323d
00000240: ab18 193b 0635 51bd 08a1 a73d 3a8b ce3d
00000250: cee4 043e f5b5 813d de32 95bd 218c 2dbd
00000260: c663 0b3e b340 b0bd b928 ee3d 387d febd
00000270: 1b15 033d 5d35 223e 2d38 e0bd f27f 99bc
00000280: cd58 16be 2f89 e13d 6c72 123d 1b94 10be
00000290: c576 853d f3a7 91bc 0191 55bd 0569 d8bc
000002a0: 399d 4dbd 39c5 983d 87c0 e9bc 8b6e 4fbc
000002b0: f63e c8b9 a009 313d 9efc 1b3d c53e 58bd
000002c0: 6f93 00be 3b0e 8c3d 3c1b b63d fad0 103e
000002d0: 19ba adbd 4abf 6e3d 7193 573b a735 27bd
000002e0: 98bd 173c 0785 833c 7515 683d d07d dcbc
000002f0: 4610 cdbd 1770 113d 82bd 09be bfe1 b9bd
00000300: 5785 97bd 7fc1 6a3b 6bda 54bd a738 2c3e
00000310: b047 b53c a641 42bd 1c99 0cbe 559c bebc
00000320: c465 dd3d 1dd5 b23d 2c2d 1cbe d2e0 47bd
00000330: 7f33 21be e009 1fbe 8395 0abe 4f80 c3bd
00000340: 63a5 e63c 860e eb3d a6c8 e3bd 1992 84bc
00000350: 4e13 8cbd 67a2 843d aa2e 98bd f6f7 1a3e
00000360: a763 003d dc84 89bd 931c 273c 2850 b83d
00000370: a371 503c bae8 d6bc fac7 d83c 505d 153e
00000380: 52ab 8abd 7f9d ce3d 69ec c3bd 4e07 e73d
00000390: 921c afbd 9a1f c93c ca36 b7bd a12f aa3d
000003a0: c918 f53c 4f3e c13c 8d37 28be 3fab 9fbd
000003b0: b613 98bd 45aa a23d 3603 3cbd 2012 9fbc
000003c0: 23bd 6f3d 145a cf3d 9c0e 85bc 69d1 ba3c
000003d0: fe93 a73d 3eef 763d 460d 59bd 8253 733d
000003e0: ccba dcbd 97be b7bc 0706 06be aeac cfbd
000003f0: 10f3 58bd c701 05bd 9dbf 533d 8f2f 113e
-0.056369264 0.12534231 0.078094594 -0.09784044 -0.11564486 -0.0885679 0.08061818 0.06607205
0.09223721 0.0914936 0.0038533397 -0.019194651 -0.013505644 -0.11644941 -0.11555594 0.07554331
0.0553724 -0.020247776 -0.0525726 -0.13071635 -0.08249269 -0.0623016 0.086389385 0.043145224
-0.03620828 0.035934765 0.09217343 0.039755672 -0.12686607 -0.054703236 -0.07879098 -0.053228877
0.048801627 0.003731182 0.13022229 0.11882423 -0.13261844 -0.05093661 -0.00989718 -0.035899043
-0.051658157 -0.076724984 -0.12814754 -0.010321571 0.10387472 -0.13354078 -0.14467287 -0.061203044
0.033319607 -0.025983766 -0.1073868 -0.005658204 0.022963738 -0.055191677 0.08846292 0.09359481
0.009736857 -0.017073303 0.06675131 -0.007753658 0.105238855 0.07134046 -0.10082408 -0.023583911
-0.044831987 -0.11215331 -0.03196932 -0.1143004 0.09367122 0.09581233 0.055622723 0.08997979
-0.03791222 -0.041633375 -0.06956969 0.07820818 0.09948907 0.15281375 0.018927066 -0.047881275
0.012493729 0.017491985 -0.09728003 -0.057558674 -0.14446719 0.044266902 -0.12531227 0.05181825
0.14978628 0.00572931 0.14086287 0.018154057 -0.059134353 -0.031355605 0.074699305 -0.056473676
0.047539707 -0.027492158 0.04901141 -0.050679915 0.06410482 0.14311151 -0.04064483 0.045528013
-0.06669805 0.021419805 -0.07133893 -0.029491255 0.049520317 -0.10475721 0.094556324 -0.1765107
0.14181075 0.0099549955 0.07073891 0.15823781 -0.08227757 0.07111968 -0.10368422 0.0108067235
0.10926736 0.006793452 0.05985725 0.10126312 -0.1758328 0.027406234 -0.05108266 0.14511214
0.053709954 0.0028552173 0.059066016 -0.001171131 -0.08517443 0.045794394 -0.099947535 0.108280994
-0.1547563 0.04152357 0.050593615 -0.046644837 0.0051461426 0.0064486573 0.005906383 0.043630138
0.002336065 -0.051075958 0.08185011 0.10085149 0.12977907 0.06333534 -0.07285093 -0.042369965
0.1361228 -0.086060904 0.11628861 -0.12426227 0.03200255 0.15840669 -0.10948215 -0.018737767
-0.14682312 0.11012494 0.035753652 -0.14118998 0.06516794 -0.01778028 -0.05214024 -0.026417265
-0.050198767 0.07459492 -0.028534187 -0.012660633 -0.00038193882 0.04322207 0.03808271 -0.052794237
-0.12556241 0.06838652 0.08891913 0.14142218 -0.08482761 0.058287896 0.0032894278 -0.04082265
0.009261511 0.016054643 0.056661088 -0.02691546 -0.100128695 0.035507288 -0.13451198 -0.09076261
-0.073984794 0.00358209 -0.051966112 0.16818486 0.02212891 -0.04742589 -0.13730282 -0.023267904
0.10810426 0.087320544 -0.15251607 -0.04879839 -0.157423 -0.15531111 -0.13533597 -0.09545957
0.028155034 0.114773795 -0.11122255 -0.016182946 -0.068396196 0.06476288 -0.074307755 0.15133652
0.031345036 -0.06714794 0.010199684 0.089996636 0.012722406 -0.02623402 0.026462544 0.14586377
-0.06770958 0.10088634 -0.09566576 0.1128069 -0.08550371 0.024551202 -0.08945997 0.08309866
0.029919045 0.023589281 -0.16427441 -0.077963345 -0.074256346 0.079426326 -0.0459015 -0.019417822
0.058529984 0.10124603 -0.016242318 0.022804933 0.08182524 0.060286753 -0.052991174 0.05940581
-0.10777816 -0.022429748 -0.13088237 -0.10140358 -0.052966177 -0.032472398 0.05169641 0.14178298

weight_hh_l1 f4 [200, 50]
00000000: 0d61 313d 453c 85bd 29b5 1cbd 83da c0bc
00000010: ee76 a63d 898c 70bd 57ff 533d b6d3 50bd
00000020: 8087 c43d f8aa e73d 8288 843d 9250 08be
00000030: 5867 a93d 0023 7d3d 6e14 a9bc 1ad3 a0bd
00000040: 88ff 03bd 9693 f5bd 2dbe 873d 0b15 22bd
00000050: 6103 84bc eebe c93d d72e b9bd 07d4 9d3c
00000060: 3f2f cc3d 61e1 03be c78a 733d a694 fb3d
00000070: 6bb4 443d 7f69 84bd 43a5 c8bd a257 163d
00000080: 832e 033e e809 8dbd 0e1e ce3d 5e85 e9bd
00000090: 1c5a 90bd d618 78bd 96e9 093e c850 e03c
000000a0: f0f4 9dbd 7d50 99bc b45c 473d 6a5b 96bd
000000b0: cfe5 2bbd bb7f ee3c 1cf5 adbc 61aa 17bc
000000c0: f06b 73bd bb77 a23d 62a2 8abd 509e 583c
000000d0: f9af b23d 620e fabd a752 99bd 8405 813d
000000e0: 7327 a4bd d195 01be 8d43 e7bd a396 05be
000000f0: 1241 ae3d d081 ddbd 79d5 023d 22cd bc3d
00000100: fe22 46bc e4fc 0cbe 4455 923d ee5c 20bd
00000110: fade 9f3d 4f36 00bc e881 b13d 523a 3fbd
00000120: 311a 4f3d 3011 cabb 4308 3eba 242d b33d
00000130: 4ca8 283d a163 23bd a346 fc3d 83a1 b7bd
00000140: 776a 11be 4f35 f2bd 2f73 cc3d 0801 f0bd
00000150: b22b f7bd 2b6a 433c 0783 f83b c48d d9bd
00000160: f2dc f63c 8666 bcbd 3246 4f3d c708 eb3d
00000170: c14c d8bd db3d 99bc fc43 213b 812a b1bd
00000180: e1ca b2bd 0d83 1f3d 0cb6 06be 4e91 47bd
00000190: 9415 d7bd 2b45 e83d 5df2 2c3d fd7f 473c
000001a0: c5c4 20bd 0d55 1cbe cd11 80bb e274 dabc
000001b0: 730e bfbc 5dcc e63c 218a 75bb bf36 84bd
000001c0: c5d8 cfbd d6cf 9f3c 85da fd3d 7016 113d
000001d0: 2ce4 88bd 1490 863d f475 01be acb8 1d36
000001e0: 9953 ab3c a8b0 90bd ffcd 773c e1b9 c83d
000001f0: 6078 cbbd 3506 8b3d ea55 c9bc 7b81 123e
00000200: edc7 1c3e d4ef b63d ce7d fabd 62e0 5e3d
00000210: 8218 173d 78fb c4bd 15fe 82bd b432 0fbe
00000220: 3be7 fabd e845 bdbd c2fa ddbd 8bee adbd
00000230: 0682 093d b9bd b43a 8d6e 0ebe 7e6f 1cbe
00000240: 5e8d 5e3d 5ddd 2d3c a49e 5f3b 9543 343d
00000250: 3d71 00be ef3b c03d 159b e5bd 442c 063e
00000260: 7c9c 13be 406e ca3d 38c6 9abd b330 8f3d
00000270: 1df0 db3d f617 a5bd 548b 25bc 6eac 013e
00000280: 127c e8bd 4459 b339 6053 00be 64b0 0f3d
00000290: 51cb 07be 4f05 c83d bb38 db3d a0d3 073d
000002a0: d28b 68ba 47eb 083e 4166 80bd 2957 0fbe
000002b0: d905 14bd a274 2dbd 9968 543c b950 393d
000002c0: dafa f2bc 6655 19bd d7f7 9b3d 7fca e03b
000002d0: 91c4 0d3d 44fb a23d 24ca da3d 7f89 67bd
000002e0: b8ad b6bb 6b54 fabd f101 debd 713e 943d
000002f0: b47e b53d 780a a3bd 4c92 5dbd 865e 5c3d
00000300: 2533 d4bd 241f 263d cd53 d23b 8f5d 13be
00000310: 56f3 ffbd 22a6 e63c 0be0 ae3d 42b7 033c
00000320: b0aa b43d 8c88 843d 89c5 873d a0c5 ee3c
00000330: 4e66 5cbd 0649 543d 782e 3dbc ea8f 073e
00000340: 6992 8d3d 0e09 b8bd f65f cabd af2a 913d
00000350: 3764 f63d 6b3c cebd f625 423c 2df3 85bd
00000360: 8c4a 3abd 9fc5 a63b 8f30 1b3d 0d99 333c
00000370: f32e 6cbd 86fb af3d b294 703d d546 07be
00000380: 6808 933d f0e5 babd 2192 f73c e0ca 3bbc
00000390: ae43 c3bb 104c 77bc 5520 d5bd 5c37 66bb
000003a0: 6c21 183e add9 8bbd cff7 dbba be8c d53d
000003b0: c5bc 08bd dca7 0d3e 57b9 0cbe fa6a e23d
000003c0: 7f1f 8bbd a290 183d bfd3 523d 596c bc3d
000003d0: 2367 e7bd 1416 c1bd f1fb d53d f972 c2bd
000003e0: d8d7 6ebd b5d0 be3d 5e7b 043e c1f6 3abd
000003f0: 9df1 05be b734 dd3d 1f2c 0abd 1427 ff3d
0.043305445 -0.06505636 -0.038258705 -0.023541695 0.08128153 -0.058727775 0.051757183 -0.050983153
0.09596157 0.113119066 0.06471349 -0.13311985 0.082716644 0.061800957 -0.020639624 -0.078527644
-0.032226115 -0.119910404 0.0662807 -0.03957085 -0.016114892 0.0985087 -0.09042137 0.019266142
0.09969949 -0.12878944 0.05945852 0.12284212 0.048023622 -0.06465434 -0.09797146 0.036704667
0.12810712 -0.06886655 0.10064326 -0.11402391 -0.07048437 -0.06057056 0.13468012 0.02738227
-0.07712734 -0.018715138 0.048672393 -0.073416546 -0.04196721 0.029113641 -0.021235041 -0.00925693
-0.05942911 0.07932993 -0.06769253 0.013221338 0.0872497 -0.122097746 -0.07486468 0.0629988
-0.08015337 -0.12654807 -0.11292181 -0.13045745 0.08508505 -0.108157754 0.031941865 0.092188135
-0.012093304 -0.13768345 0.071451694 -0.039151125 0.07806201 -0.007825448 0.08667356 -0.046686478
0.050562087 -0.0061665997 -0.0007249156 0.08748844 0.041176125 -0.039889935 0.123181604 -0.08966353
-0.1420077 -0.11826574 0.09982907 -0.11718947 -0.12068881 0.011927168 0.007583979 -0.10622743
0.030134652 -0.09199242 0.050604053 0.114762835 -0.10561515 -0.018706253 0.0024607172 -0.08650685
-0.08730102 0.03894334 -0.13155383 -0.048722558 -0.105021626 0.11341318 0.042223323 0.012176511
-0.039250154 -0.1526682 -0.003908372 -0.026667062 -0.02332232 0.02817362 -0.0037466364 -0.064557545
-0.101487674 0.019508284 0.12395195 0.03542179 -0.06684145 0.065704495 -0.12642652 2.3502316e-06
0.020913886 -0.070649445 0.015124797 0.098010786 -0.09935069 0.06788293 -0.0245771 0.14307205
0.1531064 0.08932462 -0.122310266 0.054413207 0.036888607 -0.09618276 -0.063961186 -0.13984185
-0.12251135 -0.09241849 -0.10838844 -0.08492764 0.033571266 0.0013789452 -0.1390936 -0.15276906
0.054334037 0.010611859 0.0034121657 0.044009764 -0.12543197 0.093864314 -0.1121122 0.13102823
-0.14415163 0.0988431 -0.075573385 0.069917105 0.10739157 -0.08061211 -0.010104019 0.12663433
-0.113517895 0.0003420805 -0.12531805 0.03508033 -0.13261153 0.097666375 0.1070418 0.033160806
-0.00088709325 0.13371001 -0.062695034 -0.13998093 -0.03613839 -0.042347558 0.012964391 0.045243
-0.029660631 -0.037434958 0.07615631 0.006860077 0.03461129 0.07958081 0.106830865 -0.05652761
-0.005574908 -0.12223133 -0.10840214 0.07238472 0.08862057 -0.07960981 -0.054094598 0.053801082
-0.103613175 0.04055704 0.0064186812 -0.14391159 -0.124975845 0.02815539 0.085388266 0.008039298
0.088216186 0.06471357 0.06629474 0.02914697 -0.053808503 0.051827453 -0.011546724 0.13238493
0.06912691 -0.08986102 -0.09881584 0.070882194 0.12030833 -0.100701176 0.011849871 -0.06540523
-0.04548125 0.0050894762 0.037888106 0.010961783 -0.05766196 0.08592896 0.058735557 -0.13210614
0.07179338 -0.09125888 0.030221047 -0.011461943 -0.005958996 -0.015093818 -0.104065575 -0.0035128212
0.148565 -0.06828628 -0.0016782227 0.10427235 -0.03338315 0.13833565 -0.13742577 0.110555604
-0.06793117 0.037247308 0.051471468 0.09200353 -0.11298969 -0.09428039 0.10448445 -0.094945855
-0.058311313 0.093171515 0.12937686 -0.04564548 -0.1308045 0.1080107 -0.033733483 0.124586254

bias_ih_l1 f4 [200]
00000000: 39d6 1fbd 6eee 72bb 4e89 ab3d 1be5 033b
00000010: 09a5 d4bd f9dd 003e c8fa 0f3e d25d 8cbd
00000020: 1b0c 183e 83f5 923d e2dc 023e 436d 96bd
00000030: 43ec e93d 9b71 6dbd a0d1 f3bd e363 c33d
00000040: e487 40bc 6da6 c2bd 0bff f8bd 2b45 9d3d
00000050: 9aa7 863d 1056 e9bd a8f9 96bc 05c2 d43d
00000060: b92f 91bc 1dcb 4f3d ca0a 52bd 876a 863d
00000070: cfe8 863d 7b1a 1cbd 684f 2b3d 56a1 0c3e
00000080: aca0 88bd a296 fdbd a515 9dbd 5535 d3bd
00000090: b4a8 af3d 0180 d63d a9df 533c 4628 153d
000000a0: ce63 9a3d 090c e43d 8621 4fbc 0eab 1f3e
000000b0: 2843 d7bd fc7c 2a3d a78a e5bd 455e 1dbc
000000c0: 60c1 e53d 6665 ef3b bf1e 06be 8cad 23bd
000000d0: 593f f93c 2a71 c63d 4b73 cabd 87eb 713d
000000e0: d8f5 703b 7384 b73d fb6f b3bd caad ac3d
000000f0: 1552 b4bd 8377 c5bb 5c75 8d3d c652 8e3d
00000100: b1d6 c7bd a658 c0bd ba16 8a3d f6d1 1d3c
00000110: 14ba d6bc 6d01 243d 8510 a8bd 710b 9fbd
00000120: b7f8 bd3d c744 5abd 27e7 f43d 835c dabd
00000130: f6ad d3bb 6581 963d ccb3 223d 8521 abbd
00000140: 5eae 573d 6f8d bdbd a990 efbd 532a e53d
00000150: 1ccb b2bd e3b6 c73d 4b38 893d 63c5 7ebd
00000160: 1fc3 acbd ebb8 f73d 3f27 cf3d 5181 fe3d
00000170: 6323 5abd bc14 95bd 49bd d3bd 4b65 ecbd
00000180: cb8c 853d 1f13 c13d 92f1 863c 4087 b13d
00000190: f839 d23d 95be 2dbd 7a3e 4b3b 141d e83a
000001a0: bcb9 6dbc a646 c53d b1ab 893b 302d 8a3d
000001b0: 91f5 adbd 55f1 f8bc f7c9 373d 32bb cf3d
000001c0: ade4 123d d034 dabd 48e6 d0bd 9c09 4fbd
000001d0: a009 053b fe8b d93d fd79 123e 52ce 4ebd
000001e0: ee42 b9bd 0225 d73d 3fb1 ea3c 1c7e b6bd
000001f0: a273 83bd 8d23 61bd 04e8 87bd e9a9 163d
00000200: 2aa0 783d fc72 d83d 88c5 80bd 483f a8bd
00000210: 4b02 f13d 68c2 9d3d 8416 4cbd 092a 45bd
00000220: ac21 623d b68f 0bbb d269 ed3d 4eee a3bd
00000230: a359 4ebc 8f6f cabd 95bd ddbd 4e6a 9ebd
00000240: dba6 e7bc da21 8a3d b3ab d23d 2983 e5bd
00000250: 64be 3dbd 4b8d 813c d1ab 073e c6a0 d23c
00000260: 4235 b1bc 8d23 aabc 1c5a 57bd 84f2 33bd
00000270: 782d 42bd 87dc 2d3c 86ed e23d d221 84bd
00000280: 3912 713c 2f4b 173e 492d cbbc 1935 d93d
00000290: 0f82 d5bc 3280 0a3e 88bf 1f39 2cec 4bbd
000002a0: 896a abbc 98eb e23d 43c4 fd3a ec00 ab3c
000002b0: bd1d 0c3d 2e77 aabd 9cee e5bc d5e2 3cbd
000002c0: e3ce 00be 5d1a 823c f404 aabd 6be5 aa3d
000002d0: bac5 633d aa2a 9fbd 3a24 a23c e478 61bd
000002e0: 89bd dbbd a10b 8bbb 8648 0fbe 23f8 4d3d
000002f0: 9ea4 dbbd 279c cdbd e87b 18bd e85c a63d
00000300: 82e1 0c3e af98 0c3e 2444 9dbc 6438 00be
00000310: 8023 7d3c 2b97 a83d ec9e 94bd d7b8 4a3c
-0.039022658 -0.0037068385 0.08375798 0.0020125571 -0.103830405 0.12584676 0.14060509 -0.06853832
0.14848368 0.07175734 0.12779573 -0.07345059 0.114220165 -0.05796967 -0.11905217 0.09540536
-0.011751149 -0.095043994 -0.121580206 0.07679208 0.06574936 -0.11393368 -0.018429592 0.10388569
-0.017722951 0.050730813 -0.05127982 0.06563287 0.065873735 -0.03811119 0.041823775 0.1373342
-0.06671271 -0.123822466 -0.07670144 -0.10312907 0.085770994 0.104736336 0.012931743 0.03641536
0.075385675 0.11135108 -0.01264227 0.15592596 -0.10510856 0.0416231 -0.112080865 -0.009604995
0.11218524 0.007305789 -0.13097666 -0.03996043 0.030425714 0.09689553 -0.09885272 0.059062507
0.0036767628 0.089608096 -0.08761593 0.08431585 -0.088047184 -0.00602621 0.0690715 0.069493815
-0.09757746 -0.09391908 0.06742616 0.009632578 -0.026211776 0.040040422 -0.08206276 -0.07765854
0.09275954 -0.053288247 0.11958151 -0.106621765 -0.0064599467 0.07348899 0.03972225 -0.08356003
0.052656524 -0.09255492 -0.116975136 0.11189713 -0.08730146 0.0975168 0.0670019 -0.06219996
-0.08435654 0.12095817 0.101149075 0.12427009 -0.053256404 -0.072793454 -0.10338838 -0.115427576
0.06520995 0.09427475 0.016472612 0.08668375 0.10264963 -0.04241808 0.003101258 0.0017708861
-0.014509615 0.09632616 0.0042013754 0.067469 -0.08494104 -0.030388514 0.044870343 0.101431265
0.035862613 -0.106546044 -0.10200173 -0.050546274 0.0020299926 0.106224045 0.14304347 -0.05048973
-0.09045969 0.105051056 0.02864897 -0.08910772 -0.064185396 -0.054965544 -0.0663605 0.036783133
0.06069962 0.105688065 -0.06287676 -0.08215195 0.117680155 0.07703096 -0.04982616 -0.04813579
0.055207893 -0.0021295375 0.11592449 -0.080044374 -0.012594613 -0.09884559 -0.108271755 -0.0773512
-0.028277805 0.06744738 0.10286655 -0.112066574 -0.04632415 0.015814444 0.13249137 0.025711428
-0.02163184 -0.020768905 -0.05257617 -0.043932453 -0.047406644 0.01061166 0.1108046 -0.06451763
0.014713817 0.14774774 -0.024801867 0.10605831 -0.026062993 0.13525465 0.00015234773 -0.049785778
-0.020924823 0.11080092 0.0019360859 0.020874463 0.034208048 -0.08323513 -0.02806788 -0.04611476
-0.12578921 0.015881712 -0.08301726 0.08344539 0.05560849 -0.077718094 0.019792665 -0.05504693
-0.1072951 -0.0042433296 -0.13992509 0.05028547 -0.107247576 -0.10039549 -0.03722754 0.08123189
0.137579 0.13730119 -0.019197531 -0.12521511 0.015450358 0.08231958 -0.072568744 0.012373171

bias_hh_l1 f4 [200]
00000000: cf14 b23d 0903 a63d 8d6a 263a 23cd dd3d
00000010: de7e cfbc 21b5 4d3d aefd 453d ea7a 18be
00000020: c56b debd 641d 683d 4ef8 6cbd f46d a33d
00000030: 76a6 eebd 2566 f83d a35c 5ebd 0400 d83d
00000040: 4abe c0bd d06e 82bc 2db2 0b3e 6ebd 76bd
00000050: 6492 fd3d e4d6 ff3b 905d 20bd f530 dfbc
00000060: 3907 063e 65b5 233d 5ac5 8dbc e961 f63c
00000070: c6aa 82bd c9a6 14be 9b8c a7bb 703c d33d
00000080: 5a26 ebbd b166 03be a6f6 e93d 6faa 51bd
00000090: 3e13 07be fe5d 91b6 919f c03d 22ac a0bd
000000a0: 975e 553d 6a4b fd3d 2a18 06be cee6 69bb
000000b0: d000 d83d fd15 cdbc 13c6 9dbd 9d27 4ebd
000000c0: 61f0 1abe 739d 2a3d 9c7a 32bd 9576 f1bd
000000d0: 1711 e1bd fcac c83d 98af 8a3b 1a0a 18be
000000e0: 3191 0b3e 2f8a 903d db0d c5bd ebb7 c6bd
000000f0: 1e5f a93c 6e67 a3bc 7367 433d b3e3 703d
00000100: 2c5e ddbd 3bcf 51bd e555 7d3d d12b d0bd
00000110: e2dc acbb 54e3 773d c957 b9bb 4d28 ba3b
00000120: 0465 cc3c e755 833d c4f7 21bd ed45 65bd
00000130: c239 7d3c bbad ac3d de2e cbbd 8e58 51bd
00000140: 4b3e 933c 68d3 0cbc 371c 41bd 8aa4 46bd
00000150: df9a 593d 2be9 b2bd 0dde 0abe 9aba 16be
00000160: 5253 d8bd db38 b43d 41ef a2bd a6f6 74bd
00000170: dedf 6dbd ab5f c23d 68f4 cd3d c23f 743d
00000180: 8020 74bc 5734 e83d 94a5 0abe bbf5 85bd
00000190: 33d4 e1bd 8bce 373d 12b7 ee3d b8ee e1bc
000001a0: ad23 3d3d f8f9 96bc 83e5 733d 193d d73c
000001b0: 72eb 563c 4e65 973d cec9 20bd ce42 0cbe
000001c0: 2641 adbd 9952 efbd a534 fc3d ce03 613d
000001d0: 5111 873d 6870 afbc 88c3 beba 173c ac3a
000001e0: 3b89 c23d 9737 59bc 48f0 23bd 28ee c23d
000001f0: 6423 3bbc 8669 f2bd 9a10 1d3d 38c5 c03d
00000200: b4af 3bbd 1b7a a4bc 261a 573d f470 273d
00000210: 2a54 913b dc2a 1ebd 0ead 113e 1c2d 05bd
00000220: e52d 1d3c 875a 8b3d ddff e9bd e52b aa3d
00000230: 725e f1bc cac1 d83d 4559 b33d 26ff a33d
00000240: e6b8 e93d d665 a13d 1786 323c 8d34 7dbd
00000250: 21cc 1f3c 9752 233d dab4 cb3d db07 e5bd
00000260: 8f6e eabd 835e c5bd 72e6 3d3d 9d68 8d3d
00000270: 9a95 6c3d 9700 c03b ef53 babd 80be e6bc
00000280: 3e83 c53d 205c ff3d bcc3 0ebe e558 34bd
00000290: 380d f0bb df0f 65bd 0094 05be 8576 103e
000002a0: 1baa 59bd 862a 0bbe 926d f23c f695 22be
000002b0: 4a3b 473d 905e 1fbe 02ef 843d 07f8 e1bb
000002c0: 3f1c 2f3d 05dc 19bd e6cb 21be 8b78 e33d
000002d0: 682a 03be 1b39 6bbc bb65 bbbd f7ba 053e
000002e0: 5855 47bb 6016 56bd 4060 b53d d1f5 1ebe
000002f0: bbdb febd 106b 103d 5223 30bc df37 58bd
00000300: 94e8 00be 6f57 de3d a886 04be 3c19 42bd
00000310: 9f50 b43d 08a1 943d 7f40 cbbc da19 a83d
0.08695375 0.08106048 0.0006348275 0.10830142 -0.02532905 0.050221566 0.04833763 -0.14890638
-0.10860399 0.056668654 -0.05785399 0.07979956 -0.11652844 0.121288575 -0.054287564 0.10546878
-0.09411295 -0.01592198 0.13642187 -0.060239248 0.123814374 0.0078075994 -0.03915173 -0.027245024
0.13088693 0.039967913 -0.017306019 0.030075984 -0.06380229 -0.14516748 -0.005113197 0.10314262
-0.11481924 -0.12832142 0.114239976 -0.05118793 -0.13190934 -4.332279e-06 0.09405435 -0.07845332
0.05209216 0.123679 -0.13095155 -0.0035690549 0.1054703 -0.025034899 -0.07703795 -0.050330747
-0.1513076 0.04165406 -0.04357396 -0.11790196 -0.10989588 0.09798619 0.004232358 -0.14847603
0.13629605 0.070576064 -0.09621783 -0.09703048 0.020675238 -0.01994678 0.04770608 0.0588109
-0.108089775 -0.05122302 0.061849494 -0.10164607 -0.0052753547 0.06051953 -0.0056562168 0.0056810738
0.024950512 0.06412869 -0.03954293 -0.05597489 0.015455665 0.08431574 -0.099210486 -0.051109843
0.01797404 -0.008595325 -0.04714605 -0.04849676 0.053126212 -0.087358795 -0.13561268 -0.1471962
-0.10562767 0.08799907 -0.0795579 -0.059805535 -0.058074825 0.094909035 0.100563824 0.059631117
-0.014900327 0.11338108 -0.13539726 -0.0654101 -0.11026802 0.04487471 0.11656012 -0.02757965
0.0461766 -0.018429741 0.05954505 0.02627425 0.013117658 0.07392369 -0.039254956 -0.13697359
-0.08459692 -0.11685676 0.12314729 0.05493527 0.065951 -0.021415904 -0.0014554122 0.0013140467
0.09498831 -0.013257883 -0.040024072 0.09518081 -0.011422012 -0.11836533 0.03834591 0.094126165
-0.04582186 -0.020077756 0.05251517 0.040879205 0.004435082 -0.038615093 0.14226171 -0.032513723
0.009593462 0.06804376 -0.11425755 0.083091535 -0.02946398 0.10583837 0.08757261 0.0800765
0.1141222 0.07880752 0.010896227 -0.061817694 0.009753258 0.039873686 0.09946604 -0.11183139
-0.11446869 -0.09637167 0.046362348 0.06904719 0.05775986 0.0058594453 -0.0909804 -0.02816701
0.09644173 0.12468743 -0.13941854 -0.04403009 -0.0073257945 -0.05592334 -0.13044739 0.14107712
-0.05314074 -0.1359044 0.029593263 -0.15877518 0.048640527 -0.15563416 0.064908996 -0.0068960222
0.042751547 -0.037563343 -0.15800437 0.11106976 -0.12809145 -0.014356877 -0.09150263 0.13059603
-0.003041586 -0.052267432 0.08856249 -0.15523459 -0.12444254 0.035258353 -0.0107506085 -0.052787658
-0.12588722 0.108565204 -0.12941992 -0.047387347 0.0880444 0.07257277 -0.024811028 0.08208056

weight f4 [1, 50]
00000000: 918f 0abc 68fd a8bd fc1b e33d 4aa3 c1bc
00000010: fa1c 1d3e 6635 39bd f5d6 073d 8052 c93b
00000020: 12b1 7bbd 11c8 e43d 66ef 9f3d a403 22bd
00000030: d426 453d 7456 86bd c3ea 083e 8fc4 9e3b
00000040: b7d9 093e 1b19 403d 7c17 ea3d f114 d53d
00000050: 76b5 993c b6a4 67bd 3e25 3bbd cb56 7dbd
00000060: 6294 6dbc 11d8 cd3d d802 d33d 85f4 3e3d
00000070: f06e bebc eac9 953c bf92 9bbd 63cd acbd
00000080: a1e1 a5bd 77e9 18bd 1861 e63d 0f38 6a3c
00000090: 47b6 8abd b23d 67bd b6cc ecbd b4b0 cc3d
000000a0: abbe f9bd 50a2 553c 6d2a 82bd f459 10be
000000b0: 0450 68bb 9547 863d ac5d 083d e586 d83d
000000c0: 4d5f 813d 9527 9abc
-0.00845708 -0.082514584 0.11089322 -0.023637433 0.15343085 -0.04521694 0.033163983 0.006143868
-0.061448164 0.11170972 0.078093335 -0.039554253 0.048132733 -0.065594584 0.13370804 0.004845209
0.13461958 0.046898942 0.114302605 0.10404385 0.018763285 -0.056553565 -0.045689814 -0.06185035
-0.014500709 0.10050977 0.10303277 0.04661991 -0.023246258 0.018284757 -0.07596349 -0.08437612
-0.08099676 -0.037332024 0.11248988 0.014295592 -0.06773048 -0.05645532 -0.11562483 0.09994641
-0.1219457 0.013039187 -0.06355748 -0.14096814 -0.0035448084 0.06556622 0.033292457 0.10572604
0.06317005 -0.018817702
